…
2026-02-13 18:42:18,130 INFO: Dataset [PairedImageDataset] - UCM1050 is built.
2026-02-13 18:42:18,130 INFO: Number of test images in UCM1050: 1050
2026-02-13 18:42:18,172 INFO: Dataset [PairedImageDataset] - RSSCN1050 is built.
2026-02-13 18:42:18,172 INFO: Number of test images in RSSCN1050: 1050
2026-02-13 18:42:18,204 INFO: Dataset [PairedImageDataset] - NWPU900 is built.
2026-02-13 18:42:18,204 INFO: Number of test images in NWPU900: 900
2026-02-13 18:42:18,901 INFO: Network [WaveHMT] is created.
2026-02-13 18:42:20,784 INFO: Network: DataParallel - WaveHMT, with parameters: 16,079,255
2026-02-13 18:42:20,784 INFO: WaveHMT(
  (conv_first): Conv2d(3, 180, kernel_size=(3, 3), stride=(1, 1), padding=(1, 1))
  (patch_embed): PatchEmbed(
    (norm): LayerNorm((180,), eps=1e-05, elementwise_affine=True)
  )
  (patch_unembed): PatchUnEmbed()
  (layers): ModuleList(
    (0-5): 6 x MTMixer(
      (patch_embed): PatchEmbed()
      (patch_unembed): PatchUnEmbed()
      (residual_group): BasicBlock(
        dim=180, input_resolution=(64, 64), depth=4
        (layers): ModuleList(
          (0-3): 4 x MTB(
            (softmax): Softmax(dim=-1)
            (lrelu): LeakyReLU(negative_slope=0.01)
            (sigmoid): Sigmoid()
            (norm1): LayerNorm((180,), eps=1e-05, elementwise_affine=True)
            (norm2): LayerNorm((180,), eps=1e-05, elementwise_affine=True)
            (norm3): LayerNorm((180,), eps=1e-05, elementwise_affine=True)
            (norm4): LayerNorm((180,), eps=1e-05, elementwise_affine=True)
            (wqkv): Linear(in_features=180, out_features=540, bias=True)
            (win_mhsa): WindowAttention(
              dim=180, window_size=(16, 16), num_heads=6, qkv_bias=True
              (proj): Linear(in_features=180, out_features=180, bias=True)
              (softmax): Softmax(dim=-1)
            )
            (Mamba):SMamba(
              (in_proj): Linear(in_features=180, out_features=180, bias=False)
              (x_proj): Linear(in_features=90, out_features=44, bias=False)
              (dt_proj): Linear(in_features=12, out_features=90, bias=True)
              (out_proj): Linear(in_features=180, out_features=180, bias=False)
              (conv1d_x): Conv1d(90, 90, kernel_size=(3,), stride=(1,), groups=90, bias=False)
              (conv1d_z): Conv1d(90, 90, kernel_size=(3,), stride=(1,), groups=90, bias=False)
              (getc): Conv2d(16, 16, kernel_size=(3, 3), stride=(1, 1), padding=(1, 1), groups=16)
              (c_adapter): Conv2d(16, 90, kernel_size=(1, 1), stride=(1, 1))
            )
            (Mamba): WMamba(
              (in_proj): Linear(in_features=180, out_features=180, bias=False)
              (x_proj): Linear(in_features=180, out_features=44, bias=False)
              (dt_proj): Linear(in_features=12, out_features=180, bias=True)
              (out_proj): Linear(in_features=180, out_features=180, bias=False)
              (conv1d_x): Conv1d(180, 180, kernel_size=(3,), stride=(1,), groups=180, bias=False)
              (conv1d_z): Conv1d(540, 540, kernel_size=(3,), stride=(1,), groups=540, bias=False)
              (getc): Conv2d(16, 16, kernel_size=(3, 3), stride=(1, 1), padding=(1, 1), groups=16)
              (c_adapter): Conv2d(16, 180, kernel_size=(1, 1), stride=(1, 1))
              (dwt): DWT()
              (idwt): IWT()
            )
            (fusion): WeightedFusion()
            (convffn1): ConvFFN(
              (fc1): Linear(in_features=180, out_features=360, bias=True)
              (act): GELU(approximate='none')
              (dwconv): dwconv(
                (depthwise_conv): Sequential(
                  (0): Conv2d(360, 360, kernel_size=(5, 5), stride=(1, 1), padding=(2, 2), groups=360)
                  (1): GELU(approximate='none')
                )
              )
              (fc2): Linear(in_features=360, out_features=180, bias=True)
            )
            (convffn2): ConvFFN(
              (fc1): Linear(in_features=180, out_features=360, bias=True)
              (act): GELU(approximate='none')
              (dwconv): dwconv(
                (depthwise_conv): Sequential(
                  (0): Conv2d(360, 360, kernel_size=(5, 5), stride=(1, 1), padding=(2, 2), groups=360)
                  (1): GELU(approximate='none')
                )
              )
              (fc2): Linear(in_features=360, out_features=180, bias=True)
            )
          )
        )
      )
      (conv): Conv2d(180, 180, kernel_size=(3, 3), stride=(1, 1), padding=(1, 1))
    )
  )
  (norm): LayerNorm((180,), eps=1e-05, elementwise_affine=True)
  (conv_after_body): Conv2d(180, 180, kernel_size=(3, 3), stride=(1, 1), padding=(1, 1))
  (conv_before_upsample): Sequential(
    (0): Conv2d(180, 64, kernel_size=(3, 3), stride=(1, 1), padding=(1, 1))
    (1): LeakyReLU(negative_slope=0.01, inplace=True)
  )
  (upsample): Upsample(
    (0): Conv2d(64, 256, kernel_size=(3, 3), stride=(1, 1), padding=(1, 1))
    (1): PixelShuffle(upscale_factor=2)
  )
  (conv_last): Conv2d(64, 3, kernel_size=(3, 3), stride=(1, 1), padding=(1, 1))
)
2026-02-13 18:42:20,866 INFO: Loading WaveHMT_model from /experiments/train_WaveHMT_SR_x2/models/net_g_495000.pth, with param key: [params].
2026-02-13 18:42:21,093 INFO: Model [WaveHMTModel] is created.
2026-02-13 18:42:21,093 INFO: Testing AID900...
2026-02-13 19:26:40,889 INFO: Validation AID900
	 # psnr: 37.9954	Best: 37.9954 @ test_WaveHMT_SR_x2 iter
…
