…
2026-02-02 21:30:01,669 INFO: Training statistics:
	Number of train images: 3000
	Dataset enlarge ratio: 100
	Batch size per gpu: 4
	World size (gpu number): 1
	Require iter number per epoch: 75000
	Total epochs: 7; iters: 500000.
2026-02-02 21:30:01,670 INFO: Dataset [PairedImageDataset] - AID30 is built.
2026-02-02 21:30:01,670 INFO: Number of val images/folders in AID30: 30
2026-02-02 21:30:02,343 INFO: Network [WaveMambaFusion8_2] is created.
2026-02-02 21:30:04,109 INFO: Network: DistributedDataParallel - WaveHMT, with parameters: 16,079,255
2026-02-02 21:30:04,109 INFO: WaveHMT(
  (conv_first): Conv2d(3, 180, kernel_size=(3, 3), stride=(1, 1), padding=(1, 1))
  (patch_embed): PatchEmbed(
    (norm): LayerNorm((180,), eps=1e-05, elementwise_affine=True)
  )
  (patch_unembed): PatchUnEmbed()
  (layers): ModuleList(
    (0-5): 6 x MTMixer(
      (patch_embed): PatchEmbed()
      (patch_unembed): PatchUnEmbed()
      (residual_group): BasicBlock(
        dim=180, input_resolution=(64, 64), depth=4
        (layers): ModuleList(
          (0-3): 4 x MTB(
            (softmax): Softmax(dim=-1)
            (lrelu): LeakyReLU(negative_slope=0.01)
            (sigmoid): Sigmoid()
            (norm1): LayerNorm((180,), eps=1e-05, elementwise_affine=True)
            (norm2): LayerNorm((180,), eps=1e-05, elementwise_affine=True)
            (norm3): LayerNorm((180,), eps=1e-05, elementwise_affine=True)
            (norm4): LayerNorm((180,), eps=1e-05, elementwise_affine=True)
            (wqkv): Linear(in_features=180, out_features=540, bias=True)
            (win_mhsa): WindowAttention(
              dim=180, window_size=(16, 16), num_heads=6, qkv_bias=True
              (proj): Linear(in_features=180, out_features=180, bias=True)
              (softmax): Softmax(dim=-1)
            )
            (Mamba):SMamba(
              (in_proj): Linear(in_features=180, out_features=180, bias=False)
              (x_proj): Linear(in_features=90, out_features=44, bias=False)
              (dt_proj): Linear(in_features=12, out_features=90, bias=True)
              (out_proj): Linear(in_features=180, out_features=180, bias=False)
              (conv1d_x): Conv1d(90, 90, kernel_size=(3,), stride=(1,), groups=90, bias=False)
              (conv1d_z): Conv1d(90, 90, kernel_size=(3,), stride=(1,), groups=90, bias=False)
              (getc): Conv2d(16, 16, kernel_size=(3, 3), stride=(1, 1), padding=(1, 1), groups=16)
              (c_adapter): Conv2d(16, 90, kernel_size=(1, 1), stride=(1, 1))
            )
            (Mamba): WMamba(
              (in_proj): Linear(in_features=180, out_features=180, bias=False)
              (x_proj): Linear(in_features=180, out_features=44, bias=False)
              (dt_proj): Linear(in_features=12, out_features=180, bias=True)
              (out_proj): Linear(in_features=180, out_features=180, bias=False)
              (conv1d_x): Conv1d(180, 180, kernel_size=(3,), stride=(1,), groups=180, bias=False)
              (conv1d_z): Conv1d(540, 540, kernel_size=(3,), stride=(1,), groups=540, bias=False)
              (getc): Conv2d(16, 16, kernel_size=(3, 3), stride=(1, 1), padding=(1, 1), groups=16)
              (c_adapter): Conv2d(16, 180, kernel_size=(1, 1), stride=(1, 1))
              (dwt): DWT()
              (idwt): IWT()
            )
            (fusion): WeightedFusion()
            (convffn1): ConvFFN(
              (fc1): Linear(in_features=180, out_features=360, bias=True)
              (act): GELU(approximate='none')
              (dwconv): dwconv(
                (depthwise_conv): Sequential(
                  (0): Conv2d(360, 360, kernel_size=(5, 5), stride=(1, 1), padding=(2, 2), groups=360)
                  (1): GELU(approximate='none')
                )
              )
              (fc2): Linear(in_features=360, out_features=180, bias=True)
            )
            (convffn2): ConvFFN(
              (fc1): Linear(in_features=180, out_features=360, bias=True)
              (act): GELU(approximate='none')
              (dwconv): dwconv(
                (depthwise_conv): Sequential(
                  (0): Conv2d(360, 360, kernel_size=(5, 5), stride=(1, 1), padding=(2, 2), groups=360)
                  (1): GELU(approximate='none')
                )
              )
              (fc2): Linear(in_features=360, out_features=180, bias=True)
            )
          )
        )
      )
      (conv): Conv2d(180, 180, kernel_size=(3, 3), stride=(1, 1), padding=(1, 1))
    )
  )
  (norm): LayerNorm((180,), eps=1e-05, elementwise_affine=True)
  (conv_after_body): Conv2d(180, 180, kernel_size=(3, 3), stride=(1, 1), padding=(1, 1))
  (conv_before_upsample): Sequential(
    (0): Conv2d(180, 64, kernel_size=(3, 3), stride=(1, 1), padding=(1, 1))
    (1): LeakyReLU(negative_slope=0.01, inplace=True)
  )
  (upsample): Upsample(
    (0): Conv2d(64, 256, kernel_size=(3, 3), stride=(1, 1), padding=(1, 1))
    (1): PixelShuffle(upscale_factor=2)
  )
  (conv_last): Conv2d(64, 3, kernel_size=(3, 3), stride=(1, 1), padding=(1, 1))
)
2026-02-02 21:30:04,113 INFO: Loss [L1Loss] is created.
2026-02-02 21:30:04,117 INFO: Model [WaveHMTModel] is created.
2026-02-02 21:30:38,104 INFO: Start training from epoch: 0, iter: 0
2026-02-02 21:33:31,441 INFO: [train..][epoch:  0, iter:     200, lr:(2.000e-04,)] [eta: 3 days, 21:38:53, time (data): 0.867 (0.176)] l_pix: 5.5354e-02 
…
